BreastCancerDetection.tflite (tflite, 4640 bytes, 4 tensors)

sequential_4/dense_9/BiasAdd/ReadVariableOp f4 [2]
000000 01 1e ab bd 04 1e ab 3d
       -0.08355332 0.083553344

sequential_4/dense_8/BiasAdd/ReadVariableOp f4 [20]
000000 b2 47 1f 3d 77 bf 12 3e b5 46 f1 3d 90 fe 3f bd
       0.038886733 0.1433085 0.117810644 -0.04687363
000010 44 e2 2d 3e e7 1c dc 3d 9f 37 eb bc 77 69 f1 bc
       0.16980845 0.107477 -0.028713046 -0.029469235
000020 fe d3 75 bb c3 ba 0f 3e d7 b1 32 3e ef 0c 6b bd
       -0.003751039 0.14036088 0.17450653 -0.05738538
000030 00 9e cf 3d ec 08 84 bd 8a 25 d4 3b b7 be 47 3c
       0.10137558 -0.06447014 0.0064742016 0.012191466
000040 76 44 2c 3e 60 c6 13 bc 6d 86 0a 3e b5 80 16 bb
       0.16822991 -0.009019464 0.13527842 -0.00229649

sequential_4/dense_8/MatMul f4 [20, 30]
000000 48 96 60 be ca aa 0f be 54 7e 0c be 53 1e b7 be
       -0.21932328 -0.14029995 -0.13720065 -0.35765323
000010 57 e1 3a be e3 58 00 be 13 83 3b 3e b7 90 81 3e
       -0.18250023 -0.12533908 0.1831172 0.2530572
000020 d7 5a 40 be a1 00 86 3e cf d0 47 be b3 a5 15 3d
       -0.18784653 0.26172355 -0.19513248 0.036534976
000030 02 81 06 3e af 7f 12 be 07 54 66 3e f2 a7 55 be
       0.1313515 -0.1430652 0.22492991 -0.20864847
000040 6a 2e aa be 68 eb 77 be 7c 1a 88 be 54 d0 c4 be
       -0.33238536 -0.24210894 -0.26582706 -0.38440192
000050 eb b0 94 3d d0 f2 9c be 6e 60 87 3e ae 8f 55 3e
       0.07260307 -0.30654 0.26440758 0.2085559
000060 f0 21 3f be 01 7a df bd 00 ee b7 bd ed 69 71 3e
       -0.1866529 -0.10911942 -0.08980942 0.23575564
000070 be fd 5b 3e 7b 28 ab bc 7d 9d 90 be f4 69 db be
       0.21483514 -0.020893326 -0.28245154 -0.42854273
000080 6f 2d b0 be 75 4b 8a bd f7 80 0c bd 40 c2 4f 3e
       -0.34409663 -0.067526735 -0.034302678 0.20288944
000090 3d 29 21 be d4 d2 a5 bd e0 86 8b 3e ad 8a 32 3e
       -0.15738387 -0.08096853 0.2725134 0.17435713
0000a0 42 2a cf 3d 8e 62 86 3b c0 53 16 be a0 eb 57 3d
       0.10115482 0.004101104 -0.14680386 0.052714944
0000b0 1f bd e4 bb 5a 83 64 be d6 c9 3e 3c f4 25 9f bd
       -0.006980553 -0.22315732 0.011644801 -0.07770911
0000c0 85 cd 09 3e dd 6d 89 3e 05 28 22 be 98 e7 2d be
       0.13457306 0.26841632 -0.15835579 -0.16982877
0000d0 b9 15 b0 be 2c d5 16 3e 18 f4 e2 3d 20 e9 8a be
       -0.34391573 0.14729756 0.110817134 -0.27130985
0000e0 f3 1c 50 3e fe 0c ea 3d c2 a4 17 bc 9a 47 73 be
       0.20323543 0.11428259 -0.00925559 -0.23757783
0000f0 86 9b e2 3c 92 8f 9f be f3 8e b3 3c 2b a7 a6 be
       0.02766205 -0.31164223 0.02191875 -0.32549414
000100 2a 1b 10 be 55 8f 09 3c 25 d3 97 be f5 14 0a be
       -0.14072862 0.008395989 -0.29653278 -0.13484557
000110 bf c0 e4 3d 44 e1 83 3e a6 6c af bd 76 10 c0 be
       0.11169576 0.25757802 -0.08565645 -0.3751256
000120 e1 62 84 3d 44 1a 8b be 4a 57 6b 3e cc 7d 1e 3e
       0.06464172 -0.27168477 0.22982517 0.15477675
000130 b0 36 b1 be 2d e6 a1 3d 13 d7 12 be da 86 96 be
       -0.34612036 0.07905231 -0.14339857 -0.2939976
000140 0a 3f fc bd a0 d6 4e be 43 32 85 be 27 4d d4 be
       -0.12316711 -0.2019906 -0.2601491 -0.41465113
000150 36 c9 0f be 8a 00 fa 3d c5 25 42 3e fd bc d0 be
       -0.140416 0.12207134 0.1895972 -0.40769187
000160 1a 17 24 be e7 fb 89 be 0f 42 71 3e 36 76 92 3e
       -0.16024438 -0.2695 0.23560356 0.28605813
000170 34 dd d8 3c 26 4b ea bd 5f 49 a5 3e 03 03 bd bd
       0.026472665 -0.11440115 0.3228254 -0.0922909
000180 ce 06 97 be 76 02 f9 3d 08 6f 94 be 98 cc 71 3e
       -0.2949738 0.121586725 -0.2899096 0.23613203
000190 f7 78 c5 3c cf 8b 37 3e 6b 37 82 be af a6 0a 3e
       0.024105532 0.17924426 -0.25432906 0.13540147
0001a0 ce 9a 98 be 39 51 46 3e 60 68 16 3d 6d c3 2a be
       -0.29805607 0.19366921 0.036720634 -0.16676112
0001b0 2a 50 80 be fe 89 80 3e 72 26 81 be 99 1a 84 be
       -0.2506116 0.2510528 -0.25224644 -0.25801542
0001c0 48 25 01 be 65 eb ae 3e 8a 46 85 3e de 3b 3b 3e
       -0.12611878 0.34163967 0.2603038 0.18284556
0001d0 fc f9 33 3d 1b 7a f1 bd d4 17 8a be 67 d7 94 3e
       0.043939576 -0.11790868 -0.26971304 0.2907059
0001e0 b7 fa e2 3e be 37 d2 3e 43 cb 80 3e 46 a5 d7 3e
       0.44331905 0.41058153 0.25155076 0.4211828
0001f0 41 2f ec 3d 8b 5c 4a 3e c5 43 8b 3e 47 a9 f8 bd
       0.115324505 0.19761865 0.27200142 -0.12141662
000200 47 dc a7 3e 6a 24 a0 be 88 11 c1 bd 2e ef 1a 3e
       0.32785246 -0.31277782 -0.09427172 0.15130302
000210 ed a6 87 3e 40 9d b7 3e 03 4d 84 3e 4f 3b 48 be
       0.26494542 0.3586216 0.25840005 -0.19553874
000220 20 76 81 3c 97 4b 09 be e4 7a 1b be bf 23 69 3e
       0.015803397 -0.13407741 -0.15183598 0.22767542
000230 84 db 80 3d b7 fe 8e 3e ef 86 d2 3d 50 be e1 3e
       0.06291869 0.27928707 0.10279643 0.4409051
000240 59 e6 97 3e 4e 5b 58 3e 38 5d b2 3e df 1e 76 3d
       0.2966793 0.2112858 0.34836745 0.060088035
000250 6f 09 99 3e 45 83 8e be 28 1d 2e 3d ad cb 88 3d
       0.2989001 -0.27834526 0.042508274 0.06679473
000260 24 20 cd bd e9 c8 36 be ea c1 4b be b0 0d 7d bb
       -0.10015896 -0.17850079 -0.19898191 -0.0038612895
000270 c6 2e 3c be 5d ba 1c 3e 63 8c 57 bd c6 3c e5 3d
       -0.18377218 0.15305467 -0.052624118 0.11193232
000280 1a 72 1e be a1 81 bf 3e 77 85 37 3e e7 a7 07 3e
       -0.15473214 0.37403587 0.17922007 0.13247643
000290 8f 40 ba be 5b 98 08 be e6 40 52 3d f9 0d 2c be
       -0.3637738 -0.13339369 0.051331423 -0.16802205
0002a0 aa de f9 bb de 3a e0 bd e9 83 58 3e 85 c6 84 3e
       -0.0076254206 -0.10948728 0.2114407 0.25932708
0002b0 4c 69 67 3e 3c e9 e7 be 27 11 dd be d4 c6 88 be
       0.22598761 -0.4529513 -0.4317715 -0.26714194
0002c0 92 43 b2 bd df 6d cf be 83 d7 ac be 10 d3 15 be
       -0.08704294 -0.40513512 -0.33758172 -0.14631295
0002d0 40 47 5c be 70 fc 81 3e 4b 10 7d be 85 e1 65 3c
       -0.21511555 0.25387907 -0.24713247 0.014030819
0002e0 1e 07 29 bd 70 67 a6 3e 8b 78 9d 3e 87 1d ac bd
       -0.041266553 0.32500792 0.3075603 -0.084040694
0002f0 ac 0c da bb a3 82 7d bd d3 1b a1 3d 73 c9 3c 3e
       -0.0066543426 -0.061892163 0.07866635 0.18436222
000300 36 23 75 be 25 dd ff 3d ad f6 b0 3d 18 18 2a bd
       -0.23939213 0.12493352 0.086408 -0.041526884
000310 08 e2 a0 bd 6c 37 ec 3d 84 c1 dd bd af 07 8e 3e
       -0.07855612 0.115340084 -0.10827926 0.27740237
000320 52 96 2f bd d2 cc 8c 3c d2 95 97 3e 18 f7 b2 3e
       -0.042867966 0.01718751 0.2960649 0.34954143
000330 8a 45 7b be 77 29 a0 3d ae a4 b7 3e 37 74 42 3c
       -0.24538246 0.07820409 0.35867828 0.011868528
000340 9d f0 a2 3e 5e e0 ea bd 7c 3b c5 bd 76 cb 06 3e
       0.31824198 -0.11468576 -0.09630486 0.13163552
000350 39 f1 c9 3d 81 f8 8d 3e 88 14 20 be 59 e9 29 be
       0.09860463 0.27728656 -0.15632832 -0.16592921
000360 ea 72 29 be 82 85 86 be 78 8d e8 bd 52 8c f0 bd
       -0.16547742 -0.26273733 -0.11355108 -0.11745514
000370 f5 19 bd 3e 71 af 90 3e 91 60 27 3e 3d 23 bd 3e
       0.36933866 0.2825885 0.16345431 0.36940947
000380 18 fb 55 3e 71 6d a3 be bf 84 24 3e 3a 67 bb 3e
       0.20896566 -0.31919435 0.16066264 0.36602193
000390 78 49 00 bd d6 07 07 be 38 bb 31 3d 46 8b 87 3e
       -0.031320065 -0.13186583 0.043391436 0.26473445
0003a0 c0 86 17 be f5 9f c9 3c e5 d0 0d 3d 96 d8 87 3c
       -0.14797497 0.024612406 0.034623045 0.016582768
0003b0 3c a2 b7 3e 91 db 24 3e 45 f7 43 be fe 4a 96 be
       0.35865963 0.16099383 -0.19137295 -0.2935409
0003c0 ec 46 21 be 7e 33 75 be 08 e2 8b 3e 6f 67 78 3e
       -0.15749711 -0.23945424 0.27320886 0.24258207
0003d0 1a 25 83 bd d3 4c 5f be bd 86 70 3d c5 b2 7d be
       -0.06403561 -0.2180665 0.058722246 -0.24775226
0003e0 ab a2 06 be 8a 76 a7 bd 76 6c c5 3e 19 53 09 3d
       -0.1314799 -0.081769064 0.38559312 0.033526514
0003f0 e1 f3 52 3e b5 8d aa 3d d1 b6 c3 3d ef ea 08 3e
       0.20600845 0.0832781 0.09556354 0.1337087

sequential_4/dense_9/MatMul f4 [2, 20]
000000 59 26 f3 be f0 50 86 be 76 ce de be 82 2f d2 bd
       -0.47490194 -0.26233625 -0.43516892 -0.10262968
000010 de 1a e7 3d 3c 04 0b bf 72 b9 c5 be 8f aa f8 3d
       0.112844214 -0.54303336 -0.38618046 0.121419065
000020 12 c2 83 3e 02 0b 99 be 96 0f 56 3e 33 55 f5 3d
       0.25734 -0.2989121 0.20904383 0.11979141
000030 66 e9 c3 be b2 03 c1 3e 4d 74 9d 3e 71 65 3b be
       -0.38264006 0.37698132 0.30752793 -0.18300416
000040 96 7f da be 66 a4 2d bd 73 f7 4b be 53 29 5a 3e
       -0.42675465 -0.04239311 -0.19918613 0.21304826
000050 0a fd 41 3d e8 b4 48 3e a7 95 a0 3d 64 8d d3 bd
       0.047360457 0.1960026 0.07841044 -0.103297025
000060 5d d8 3f be d8 93 69 be 56 27 d9 be 7c 31 ee bc
       -0.1873488 -0.22810304 -0.42412823 -0.02907633
000070 02 90 4e 3c 43 f6 3f 3e 09 b4 94 bd 44 55 b3 be
       0.012607576 0.18746285 -0.072609015 -0.3502599
000080 86 a0 95 3e 8a eb 12 be 78 fc 3c 3d f3 f3 9c bd
       0.29224032 -0.14347664 0.04613921 -0.07663717
000090 78 ba 6a be 6d 70 12 be ad bc fa be 0b 2e 83 be
       -0.22922695 -0.143007 -0.48972073 -0.25621065
